nueva_carpeta/assets/modelrnn_vfinal.tflite (tflite, 45472 bytes, 10 tensors)

sequential_2/dense_9/BiasAdd/ReadVariableOp f4 [30]
000000 29 86 11 be 11 88 36 bd a0 92 3b 3f 2d 6b c0 bc
       -0.14211334 -0.044563357 0.73270607 -0.023488605
000010 0b 79 30 be 77 2a 5b bc 91 8a 94 be 0b 64 58 be
       -0.17233674 -0.013376824 -0.29011968 -0.21131913
000020 56 22 2a be 8f 6d 83 3f c0 ec 84 bd 42 f2 37 be
       -0.1661466 1.026781 -0.06490469 -0.17963508
000030 2a ff 39 bd 58 11 67 be 69 78 bc bd 8c 65 e9 bd
       -0.04540936 -0.2256521 -0.09202654 -0.11396322
000040 6b 93 b5 bd af 94 27 bd 4a 36 ac 3f d5 f2 29 ba
       -0.08866008 -0.04091328 1.3454068 -0.0006483023
000050 fc f7 6a bd a9 2a d5 bd 71 29 a6 bb 76 fa 42 be
       -0.057365403 -0.104085274 -0.005070858 -0.19040856
000060 3a 40 68 bb 6c 40 3f be 7a df 89 bd 6d c5 16 bf
       -0.0035438673 -0.18676919 -0.06732078 -0.58895
000070 1e e5 97 ba e0 74 38 be
       -0.0011588668 -0.18013334

sequential_2/dense_8/BiasAdd/ReadVariableOp f4 [60]
000000 00 00 00 00 70 c6 b9 bb e2 1b 02 bd ce b4 91 3f
       0.0 -0.0056694075 -0.031764872 1.1383302
000010 fe 25 77 3f f3 8c 93 bd 99 97 98 be 2c e0 04 bc
       0.96542346 -0.07204618 -0.2980316 -0.008110087
000020 bc 49 16 bd d3 51 40 bb b8 1b 02 bd de a5 0c be
       -0.036691412 -0.0029345646 -0.031764716 -0.13735148
000030 08 9a 89 be 1e 7e 48 be 00 00 00 00 62 c8 63 be
       -0.2687533 -0.1957936 0.0 -0.22244409
000040 5d 49 47 bc 99 a3 20 be 5e f1 01 bd 1c a8 36 be
       -0.012163487 -0.15687408 -0.031724326 -0.17837566
000050 00 00 00 00 07 25 c5 bc 81 fc d7 bb 1e 6c 01 bd
       0.0 -0.024065508 -0.00659138 -0.03159725
000060 d8 50 53 3e ae 87 83 be 8e cc f4 bc 1f 08 58 be
       0.20636308 -0.25689453 -0.029882696 -0.21096848
000070 49 86 5a be 8b 50 e3 bc 1b 3c 53 bc 1a 08 ae bb
       -0.21340288 -0.027748367 -0.012892748 -0.0053110244
000080 28 0b f8 bc 00 00 00 00 7e 40 77 3e a4 f2 0c be
       -0.030278757 0.0 0.24145696 -0.13764435
000090 72 8b 3a bc 6d 6a c1 bc e5 2f 10 bc a8 18 02 bd
       -0.011385785 -0.023610318 -0.008800481 -0.031761795
0000a0 21 7e 2b bc bc 51 05 bb 06 27 c6 bb 58 1b 78 3f
       -0.010467083 -0.0020342907 -0.0060471324 0.96916723
0000b0 84 e9 fa ba 2a 43 78 bc 79 a3 46 3f d2 c7 72 be
       -0.0019143079 -0.015152732 0.7759319 -0.23709038
0000c0 00 00 00 00 34 1a f2 bd 37 6b 4e be 1c 33 82 be
       0.0 -0.11821404 -0.20158087 -0.25429618
0000d0 58 ba 19 bd df b8 79 bd 61 d9 63 3f f2 1b 02 bd
       -0.037531227 -0.060967322 0.8900357 -0.031764932
0000e0 00 00 00 00 c5 1b 02 bd 00 00 00 00 ab e9 88 bc
       0.0 -0.031764764 0.0 -0.016712984

sequential_2/dense_10/BiasAdd/ReadVariableOp f4 [15]
000000 1c 98 82 be 2a b9 ef bd e2 f7 f1 3f 53 95 bb bd
       -0.25506675 -0.11705239 1.8903773 -0.09159341
000010 1a aa c0 be 00 00 00 00 37 a2 49 be 04 b1 c0 bc
       -0.37629777 0.0 -0.19690786 -0.023521908
000020 8e 8f e0 3f a1 f9 6e be 6d cc 89 be 00 00 00 00
       1.754381 -0.23337413 -0.26913777 0.0
000030 58 3f 20 be 63 a1 0e be b6 a7 69 bc
       -0.15649164 -0.13928752 -0.014261177

sequential_2/dense_8/MatMul f4 [60, 30]
000000 78 24 44 3e c6 11 7f be f7 78 57 be dd 8f 6a be
       0.19154537 -0.24909124 -0.21042238 -0.22906442
000010 48 59 a9 bc 02 1f 52 be 30 1b 79 3d e8 19 af bd
       -0.020672455 -0.20519641 0.060816944 -0.08549863
000020 89 29 53 be 30 d0 1f 3d 98 6f 37 bd c1 0c 55 be
       -0.20621313 0.039016902 -0.04478416 -0.20805646
000030 80 cc 0b bd 24 e7 dc bd 50 14 a4 bc 29 c4 20 be
       -0.034130573 -0.10786274 -0.020029217 -0.15699829
000040 4c 7f 1c bd c0 e8 37 bc b8 31 30 3d 98 e8 35 3e
       -0.038207337 -0.0112249255 0.043016165 0.17764509
000050 51 9a 28 be de ac b9 bd 00 83 c7 bd bf 73 33 be
       -0.16465117 -0.09066175 -0.09741783 -0.17524622
000060 ec ac 75 bd 00 34 c9 3b 00 62 ff ba f7 91 6f be
       -0.059979364 0.006140232 -0.0019484162 -0.23395525
000070 c4 f2 5e 3e a0 59 29 3e ba 3c 22 3d ac fc 27 3e
       0.21772295 0.16538095 0.039608695 0.1640498
000080 c4 1a 6d 3e 01 32 8e 3e 2f 49 83 be b1 fd 0d be
       0.23154742 0.27772525 -0.25641772 -0.13866307
000090 44 32 80 be b0 1e 33 be a0 30 77 be 7c b5 92 be
       -0.2503835 -0.17492175 -0.24139643 -0.28654087
0000a0 f4 b4 67 3e 31 95 16 bd c3 f1 59 be e8 9d 00 be
       0.22627622 -0.036763374 -0.21283631 -0.12560236
0000b0 2a 9c c4 bd 8c 3e 0a be d0 48 4a 3d 78 11 1f be
       -0.096000984 -0.13500422 0.049385846 -0.15534008
0000c0 4e 49 5a 3e d4 e7 67 3a 9f f9 28 3e fc 78 98 3d
       0.21317026 0.0008846496 0.16501473 0.07444951
0000d0 22 8c 38 3e 82 35 4b 3e aa d6 7c 3e d2 68 b7 bd
       0.18022206 0.1984463 0.24691263 -0.0895554
0000e0 b6 1b 67 be 01 1a d2 bc 48 11 e4 3d e8 74 33 be
       -0.22569165 -0.025647165 0.11136109 -0.17525065
0000f0 ee 7a 38 be 49 1e 80 3e 77 cb 68 be ec 91 7e bd
       -0.18015644 0.25023106 -0.22733866 -0.06215088
000100 dc 42 36 3e ee 05 dc bd 9c c3 11 3e 01 23 67 be
       0.17798942 -0.107433185 0.14234775 -0.22571947
000110 30 ef 75 bc 18 30 e8 3d 68 5c 2e 3d d0 e0 7b bc
       -0.01501064 0.11337298 0.042568594 -0.015373424
000120 c4 6c c7 3d 02 ad 4f be f6 05 2f 3e 26 99 84 bd
       0.09737542 -0.20280841 0.17092118 -0.06474523
000130 f7 75 4c be d4 46 bd bd e6 fb 14 3e d0 b3 23 bd
       -0.19966875 -0.09242025 0.14549217 -0.039966404
000140 26 76 3d 3e a0 cc 03 bc f8 62 cf bc 70 dc a2 bd
       0.18502101 -0.008044392 -0.025315747 -0.07952201
000150 5c e7 c2 3d 3b 3c 82 be fc 45 cb bd 0c 50 8d 3d
       0.095167845 -0.25436577 -0.09925458 0.06900033
000160 80 ac 5f 3c 2a 61 6b be db c8 0a 3d 00 d7 21 3e
       0.013651967 -0.22986284 0.033882957 0.15804672
000170 12 53 01 3e 02 fb 16 be f4 07 28 3e e0 9f bd bd
       0.12629345 -0.1474419 0.16409284 -0.09259009
000180 29 32 51 be 00 3b 80 bb e6 b2 12 be c3 c2 04 bd
       -0.20429291 -0.0039132833 -0.14326057 -0.0324123
000190 48 d3 78 be 96 50 93 3e b2 b0 7d 3e ff 92 05 c0
       -0.24299347 0.2877242 0.24774435 -2.087097
0001a0 24 58 72 3e 7e af 40 3e 8e c7 63 be f7 10 74 3e
       0.23666435 0.18816945 -0.22244093 0.23834597
0001b0 40 0f 5c bd 18 09 9a 3e c4 63 01 3d f8 85 00 bd
       -0.05372548 0.30085063 0.031589285 -0.031377763
0001c0 66 9d 82 bd 74 15 74 3e 60 f1 13 bc 4c 27 fc 3d
       -0.063776776 0.23836309 -0.009029716 0.12312183
0001d0 7d 6f 28 be 20 0b ec bd 30 3e b1 3c 00 30 a6 3b
       -0.1644878 -0.115255594 0.021636099 0.00507164
0001e0 c6 4d 99 3a c0 4c c5 bc 60 e1 0f bc da d2 d6 3d
       0.0011696152 -0.024084449 -0.008781761 0.104894355
0001f0 70 e6 fd bd b2 4d 69 3e dc 81 6f be a0 40 48 3c
       -0.12397468 0.22783545 -0.23389381 0.012222439
000200 18 9c c2 3d 1a 92 7d be d6 ff ed bd 83 0e 1c 3d
       0.09502429 -0.24762765 -0.116210625 0.038099777
000210 a6 9d f2 bd 95 10 4e bf 64 3e 50 be 01 ab 71 be
       -0.11846475 -0.8049405 -0.203363 -0.23600389
000220 98 7e f2 3d e0 3d ce bd a0 99 25 3e 9e 4c e3 3c
       0.11840552 -0.100703955 0.16171885 0.027746495
000230 7f 2a b0 3d cc 67 bf 3d 93 25 1f be 61 a9 48 be
       0.086018555 0.093459696 -0.15541677 -0.19595863
000240 e0 01 39 be b6 51 70 be 55 80 4a be 63 8a 85 3e
       -0.18067122 -0.2346867 -0.19775517 0.26082143
000250 f4 c4 69 bd 18 9f 1d 3e 71 2e 35 3e 46 09 70 3e
       -0.057072595 0.1539272 0.17693497 0.23441038
000260 7f 64 81 3e 99 db 5d 3e 1e 18 f8 bd cc fa a5 3d
       0.25271985 0.21665801 -0.12113975 0.08104476
000270 98 22 81 bd 20 4d 88 3c 4e c3 ca bd 21 f3 b4 bd
       -0.06305426 0.016638339 -0.09900533 -0.08835436
000280 80 0d 1c 3d 00 78 6b bc b0 ae 6f 3e 4e 32 99 bb
       0.038098812 -0.014371872 0.23406482 -0.0046751862
000290 45 73 80 3e 5b f1 2e be 10 d6 42 bc 7a 59 3b be
       0.25087944 -0.17084257 -0.011891857 -0.18295851
0002a0 78 59 49 3e b4 ac a4 bd 0d 5d 16 be 94 94 13 3e
       0.19663036 -0.08040753 -0.14683934 0.14412147
0002b0 4c 29 cc 3d 20 6f e0 3d 64 60 e3 3d 70 89 e1 bd
       0.09968814 0.109586954 0.111023694 -0.11012542
0002c0 48 0f 25 3e c3 d6 71 3e ac fe e5 bd 2a 7e b9 bd
       0.1611911 0.23617081 -0.112302154 -0.09057267
0002d0 a7 4f f6 3d 8c 2f 17 3e 4a f5 79 3e 6c db 06 bc
       0.12026911 0.14764231 0.24409977 -0.008231025
0002e0 e7 ef 0b be e4 bf fa bd 84 bf 99 3d d0 fe f1 bc
       -0.13665734 -0.122436315 0.07507232 -0.02954045
0002f0 80 69 e5 bb c6 1e 44 3e ba cd 27 3e 2d ee b5 bc
       -0.007001102 0.19152364 0.16387072 -0.022208298
000300 e6 24 27 be 81 dd 57 bd de 1a cc bd 2a 12 0d be
       -0.1632267 -0.052701477 -0.09966062 -0.1377646
000310 46 be da bd 39 e7 6e 3d f0 44 76 3d 07 a0 63 3e
       -0.10680823 0.05832598 0.060124338 0.22229014
000320 e1 84 dd 3c 26 e8 38 be 0d 8b 6d be 42 66 34 be
       0.0270409 -0.18057308 -0.23197575 -0.17617133
000330 80 b9 6e 3e 90 6b 97 3d 9e 42 c1 bd bb da 12 bd
       0.2331295 0.07393563 -0.09436534 -0.03585313
000340 70 98 d3 3c 6e bd 0d be 2c f6 31 3d e4 78 46 3e
       0.025829524 -0.13841793 0.04344766 0.19382054
000350 04 9c 19 3e 39 5b b7 bd d0 4e 5f bc 76 0f 38 3e
       0.15000921 -0.08952946 -0.01362963 0.17974648
000360 86 36 3b be 04 24 f6 bd e0 61 69 3c 87 80 5b be
       -0.18282518 -0.12018588 0.014244527 -0.21435748
000370 9e 38 70 3e 6a 64 89 bd a4 d4 19 be 3c 69 99 bc
       0.23459098 -0.067086056 -0.15022522 -0.018726937
000380 1e f7 3a be 59 34 81 3e a4 69 49 3e 52 e8 7a 3e
       -0.1825833 0.2523525 0.19669205 0.24502686
000390 5e 2d 3d 3e 84 24 6e be 8a c3 f5 bd a2 23 48 3e
       0.18474337 -0.23256117 -0.12000187 0.19544843
0003a0 40 32 fd bb d0 c8 cc 3c ba f1 13 be 9c 25 11 3e
       -0.0077269375 0.024998099 -0.1444768 0.14174503
0003b0 d0 0f e4 3c 6e 50 47 3e a5 4e 55 be 4c 22 e4 3d
       0.027839571 0.19464275 -0.20830782 0.11139354
0003c0 46 3e 7b be dc 01 60 3e 58 09 17 bd 15 97 f9 bb
       -0.24535474 0.2187571 -0.036874145 -0.0076168873
0003d0 68 d7 67 bd b0 ad a6 bc 72 72 66 be dd 11 3c be
       -0.05660191 -0.020346493 -0.22504595 -0.1836619
0003e0 1e d6 9b bd 5a 88 e4 3c 58 98 46 3e 6f ba de 39
       -0.07609199 0.027897049 0.19394052 0.00042482044
0003f0 70 f1 42 be 82 e9 6b be bb e8 80 be b2 83 95 bd
       -0.19037414 -0.23038295 -0.2517756 -0.073005095

sequential_2/dense_9/MatMul f4 [30, 60]
000000 59 ce 80 3e e4 a0 29 3d 40 a4 53 3c 7a 6a e8 bc
       0.2515743 0.041413203 0.012917578 -0.028371084
000010 42 0f fd bd 98 30 99 3d a8 4b 88 be ea 30 9f be
       -0.12356426 0.07479972 -0.2662022 -0.31092006
000020 79 3d 83 3d b4 03 81 3e 28 c8 0b 3d bf 10 46 be
       0.06408209 0.25198138 0.03412643 -0.19342326
000030 5c 73 6d be 47 78 25 bd f0 1c 9e 3d 57 6b 12 3e
       -0.23188537 -0.04039791 0.07720363 0.1429876
000040 f3 54 0b be 2f 2f 2d be 8d 75 08 be 7f b7 b5 3d
       -0.13606624 -0.1691253 -0.13326092 0.0887289
000050 98 ee 1e be 80 14 38 be 48 c4 21 3e a8 a1 33 3e
       -0.15520704 -0.1797657 0.15797532 0.17542136
000060 90 7b 4f be 4d 73 88 be 9e 00 70 3e d8 2a d3 bd
       -0.20261979 -0.26650468 0.23437735 -0.10310906
000070 2f 55 f9 3d dd dd 84 3e 0c 42 bb 3d 42 02 62 3e
       0.121744506 0.25950518 0.09143457 0.22071174
000080 c0 ee 02 3e 08 2f 55 3e b4 44 5c bd ee 1b b2 be
       0.12786388 0.20818722 -0.053776458 -0.34786934
000090 91 1b 2d 3e 16 84 4c 3e f5 91 38 bb 2e ad 4a be
       0.16905047 0.19972262 -0.002816317 -0.19792625
0000a0 72 52 7e be d7 74 c6 3d 98 72 17 3e f4 5e 89 3d
       -0.24836138 0.09690254 0.14789808 0.06707564
0000b0 fe 89 da 3d 3d 4c 30 be a6 16 3d be 80 4b ba bd
       0.10670851 -0.17216583 -0.18465671 -0.09096432
0000c0 40 c7 8f 3b 25 af 60 be ac 38 c6 3c 86 74 50 be
       0.004387766 -0.21941812 0.024196945 -0.2035695
0000d0 e0 7f c3 3c 61 1f cd 3c 56 2d dc 3c ba 37 88 bd
       0.023864686 0.025039377 0.026877087 -0.06651254
0000e0 44 5b 18 3e 60 14 3a 3c c8 17 05 be bc dd e8 bd
       0.14878565 0.011357397 -0.12997353 -0.113704175
0000f0 7a 59 37 be 88 be 5a 3d b8 ba 2f be b9 79 05 3d
       -0.17905226 0.05340436 -0.17161071 0.032586787
000100 c0 b5 4a 3e 8a 40 14 3d 98 42 24 3e 8e c7 09 be
       0.19795895 0.03619436 0.16041028 -0.1345503
000110 b3 0d 0c 3e 66 7e 0b be ec 06 40 be 0e cd bb 3d
       0.13677101 -0.13622436 -0.1875264 0.091699705
000120 e3 68 72 be ee 02 0f be d8 7f 54 be c2 29 a8 3d
       -0.23672824 -0.13965961 -0.20751894 0.0821109
000130 16 49 95 bd 67 b1 2b 3c d6 3e 31 3e a5 30 d9 3d
       -0.07289331 0.010479308 0.17309126 0.10604981
000140 84 9d 22 3e bc 6c 6f 3e 8c ec b3 3d 42 15 07 3e
       0.158804 0.23381323 0.08785352 0.13191703
000150 2e 49 3e 3e 3b f8 f1 3d 6f 85 3b be 35 f4 a6 3c
       0.18582603 0.11814924 -0.1831262 0.020380119
000160 d8 2f b1 3d 32 f0 3b 3e 38 44 e4 bd 8a f2 15 be
       0.086517036 0.18353346 -0.11145824 -0.14643303
000170 30 b2 ff 3d 52 5e 47 be 6e 06 55 bd b5 be 62 be
       0.124851584 -0.19469574 -0.052008085 -0.22143061
000180 7b 65 39 3d c4 1f 1b be 9e f3 f6 3d 86 56 33 3e
       0.045262795 -0.15148836 0.12058185 0.17513475
000190 40 49 c3 bc 0d f4 1d bd 5e cb d1 bd 55 89 6d be
       -0.02383864 -0.038562823 -0.10243867 -0.2319692
0001a0 e7 2e 61 3c 0b da e3 bd c3 73 2b be 33 86 db bd
       0.013744093 -0.11125573 -0.16743378 -0.10718956
0001b0 74 69 8e 3d 53 7a 26 be 0a 99 2c bc 6f f1 d9 bd
       0.06953707 -0.162576 -0.010534534 -0.10641753
0001c0 a0 2d 2a bc 56 c2 2c be 0b b0 5b be 8a 31 7a 3e
       -0.010386854 -0.16871008 -0.21453874 0.2443296
0001d0 80 45 34 be 78 e3 06 3e 72 03 a0 bd 16 1a 8c bd
       -0.17604637 0.1317271 -0.07813157 -0.06840913
0001e0 52 a7 23 be 56 63 06 3e 6a 58 53 3e 6c 37 f5 bd
       -0.15981796 0.13123831 0.20639196 -0.119734615
0001f0 93 ba 57 3d 40 c2 6d bc 40 c0 18 3c 0c 83 18 be
       0.052668165 -0.014511645 0.00932318 -0.1489374
000200 76 1e 81 be f9 ce 83 be dc 96 14 3e 2c db b7 3d
       -0.25218552 -0.25743845 0.14510673 0.089773506
000210 5a 57 50 be cc 0d d4 bd 6a 63 e9 bd 20 9d 1c 3d
       -0.20345822 -0.10354194 -0.11395915 0.038235784
000220 58 53 3d 3d d0 36 a8 3c 82 a6 0b be 62 90 d5 bd
       0.04622206 0.02053395 -0.13637736 -0.104279295
000230 4c 88 04 bd d0 78 71 3e 59 e9 44 be d0 f2 93 3d
       -0.032356545 0.23581243 -0.1922964 0.07224047
000240 c6 6c 26 bc bc 84 b5 3d 42 49 3b 3e 40 8c 4f 3e
       -0.01015777 0.08863208 0.18289664 0.20268345
000250 be d8 58 be 9e 0d 53 be 90 2b d5 3d 18 07 01 be
       -0.2117643 -0.20610663 0.104086995 -0.12600362
000260 b7 78 55 be 68 46 54 3e e5 25 fc bd 78 91 d0 3d
       -0.2084683 0.20729983 -0.12311915 0.10183996
000270 d5 2e 81 be a2 98 14 be 4c 80 6b 3e b0 4e ca 3c
       -0.25231043 -0.1451135 0.2299816 0.024695724
000280 3c 78 03 be 34 50 d0 3d c0 b3 d2 3b fc 0a f6 bd
       -0.12838835 0.101715475 0.0064301193 -0.12013814
000290 6e 89 3a 3e b0 93 77 bd 1a b4 ae be 58 55 05 be
       0.18216488 -0.06044358 -0.34121782 -0.13020837
0002a0 0c 15 8d 3d c6 6e 80 be 38 26 39 3e 68 22 8b bd
       0.0688878 -0.25084513 0.18080986 -0.06793672
0002b0 e8 57 e4 bd 13 ec 57 3e 06 5e 15 be f0 c5 82 3c
       -0.11149579 0.21086149 -0.14586648 0.015963525
0002c0 c4 10 72 be 60 7a 23 3d 80 df e3 3c 76 86 6b be
       -0.23639208 0.039911628 0.027816534 -0.23000512
0002d0 24 e8 b7 3d 05 2e c9 3d 10 ac 6b 3e 72 43 0c be
       0.08979824 0.09823231 0.23014855 -0.13697603
0002e0 80 2b a0 3d 12 e4 ba bd 68 0d 25 3e cf 02 06 bd
       0.07820797 -0.09125532 0.16118395 -0.032717522
0002f0 aa aa 34 3e b2 84 19 be 40 d1 18 bc 3a cd 65 3e
       0.17643228 -0.14992025 -0.009327233 0.22441569
000300 3f 06 8b be bc d1 6e be 7e ed 71 3e af 6b 99 bd
       -0.27153203 -0.23322195 0.23625752 -0.07491242
000310 b6 c6 10 be d0 10 19 be 80 46 9e 3d 0d 61 18 3e
       -0.14138302 -0.1494782 0.077282906 0.14880772
000320 20 6a 1f bc c2 36 f8 bd 9b 83 6b be a4 7d f3 3d
       -0.009729892 -0.12119819 -0.22999422 0.118891984
000330 a4 5b 16 bd 97 60 1a 3e 42 93 67 3e bc 66 81 3c
       -0.03670849 0.15075909 0.22614768 0.015796058
000340 10 4b 19 3e ee 12 0a be fe fa 37 be 20 e0 5a bd
       0.1497004 -0.13483784 -0.1796684 -0.0534364
000350 c4 3c 93 bc 08 7a df bd 94 ef d6 3d 94 c4 92 3c
       -0.017973311 -0.109119475 0.10494915 0.017916001
000360 66 3c 25 be 21 2c 42 bd f9 4b f2 3d 1a a2 83 be
       -0.16136321 -0.047405366 0.11830897 -0.2570961
000370 f4 9c 30 bd 85 83 31 3e e4 83 cb bd 9b 4c 53 bb
       -0.043118432 0.17335327 -0.099372655 -0.0032241705
000380 1c f4 30 3d 0f b7 32 3e 6d f7 84 bd 9b ab 1d 3d
       0.04320155 0.17452644 -0.06492505 0.038493734
000390 1a 8a 28 be 4e 65 0d be 58 3b de bd d2 d7 57 be
       -0.16458932 -0.13808176 -0.10851163 -0.21078423
0003a0 be aa 01 3e 7c 85 38 be fb f8 61 be 36 89 6e 3e
       0.12662789 -0.1801967 -0.22067635 0.2329453
0003b0 14 57 48 bd 0a 2a 00 3e c4 59 74 be 90 fa 72 be
       -0.04891117 0.12516037 -0.23862368 -0.23728395
0003c0 96 4d 5b be 94 0e 63 be e0 04 8c 3c ed 85 f2 3d
       -0.21416315 -0.2217353 0.017092168 0.118419506
0003d0 ab 25 a8 bc 8c a2 84 be 38 46 18 be b4 c2 bd bd
       -0.020525774 -0.25905263 -0.14870536 -0.09265652
0003e0 2f bc f7 3d c4 de 9a bd e1 b8 80 3e c9 05 ae 3c
       0.1209644 -0.075620204 0.2514105 0.021242993
0003f0 dc 47 b3 3d c8 9e 26 be b0 c4 3e be 2f ec 0f 3e
       0.087539405 -0.16271508 -0.18629718 0.1405494

sequential_2/dense_10/MatMul f4 [15, 30]
000000 4b a8 56 be 92 81 67 be e0 36 75 bc fb 1c ae 3d
       -0.20962636 -0.22608021 -0.0149666965 0.08501621
000010 d7 4f 25 be 30 3c 08 be 16 68 99 be d3 52 8e be
       -0.16143738 -0.1330421 -0.29962224 -0.27797565
000020 48 92 bf be 9a 68 9f bb ca b0 95 3d af c2 18 be
       -0.3741629 -0.0048647644 0.073091105 -0.14918016
000030 d7 9e 9c be c6 ba b1 be a2 25 a9 3e a0 d8 46 be
       -0.30589935 -0.3471281 0.33036524 -0.19418573
000040 c2 e3 19 3e b5 f2 f9 be 70 38 b1 bd 16 c9 26 3c
       0.15028289 -0.48817983 -0.08653343 0.010179779
000050 4c f3 31 3e b7 f8 fd 3d 4e 99 ee be 82 e5 a0 bd
       0.17377967 0.12400954 -0.46601337 -0.07856275
000060 a4 de ca 3d 9e af 80 3e 6f 5d 97 bd 8d 75 d2 be
       0.099057466 0.25133985 -0.07390868 -0.4110531
000070 ec 83 47 3e 2c 83 87 3d be 8c 9f 3e 00 16 3b be
       0.19483918 0.06616816 0.31162065 -0.18270111
000080 f0 46 ff bc b0 25 c0 bc 84 75 8d 3e 10 cf 21 bd
       -0.031161755 -0.02345547 0.2762872 -0.03950411
000090 90 fe 35 3d 18 a2 b1 be ba e3 a5 be e8 dd 2b 3d
       0.044432223 -0.3469398 -0.32400304 0.041959673
0000a0 65 03 a7 be b3 c7 b3 be 8c 6d 5c 3e 1f ec 44 be
       -0.32619777 -0.35113296 0.21526164 -0.19230698
0000b0 a6 51 7f be 40 2d 27 3c 14 b5 f1 3d d5 c4 87 3e
       -0.2493349 0.01020366 0.11802116 0.26517358
0000c0 bf b2 00 bd 0b f9 d4 be 67 60 a0 be 8a d9 99 be
       -0.031420466 -0.41596255 -0.3132355 -0.30048782
0000d0 5b 19 fc 3c e2 c4 96 be dd c5 89 be 98 05 c4 be
       0.03077381 -0.29447085 -0.2690877 -0.38285518
0000e0 04 6d 24 be b5 0a c2 3d 64 49 af 3e 30 11 7f 3d
       -0.16057211 0.094746985 0.3423568 0.06227225
0000f0 3b 0e 6a bd a5 db 1b 3d 0b ae 89 bf 00 fe f0 bc
       -0.057142477 0.038051266 -1.0756239 -0.029417992
000100 8b 3a 22 bc 25 80 c5 3d 42 07 9d bc f1 24 5b be
       -0.009901653 0.09643582 -0.0191685 -0.21400811
000110 17 1a 42 3e 67 a8 36 3e 29 8f 9d 3e bc e1 86 bd
       0.18955265 0.17837678 0.30773285 -0.06586024
000120 f0 9b 4d bd c1 d6 83 bd 9a ba 8d 3e 29 67 b8 3d
       -0.05019754 -0.064374454 0.27681428 0.09004051
000130 7a c8 67 bd 84 e2 19 3d 70 ca fc 3e 4a 8b 05 3e
       -0.056587674 0.037569538 0.49373198 0.13041416
000140 de 34 27 bd b3 83 2c be f4 e8 81 be 84 1d 7b be
       -0.040821902 -0.16847114 -0.25373042 -0.24522978
000150 01 ad 57 3d 5d 4a ef bd 0b d4 0a 3e 4f 6d 1d 3e
       0.052655224 -0.116841055 0.1355745 0.15373729
000160 0b d4 10 be ec bf b2 3d 34 fa a7 bd 5e b3 98 3e
       -0.14143388 0.087280124 -0.08202019 0.29824346
000170 87 9e ea bc 5d 5a 69 be 18 cb 10 3e 5e 43 f9 bd
       -0.028640045 -0.22788377 0.14139974 -0.121710524
000180 40 25 b5 bd 94 a4 3f 3e 6c 13 91 3d ce fd 6e 3e
       -0.088449955 0.18715125 0.070837826 0.23339006
000190 33 7b e3 bd 73 23 a8 be de f7 9f be 00 7e 12 3b
       -0.11107483 -0.32839546 -0.31243795 0.0022352934
0001a0 fd 79 0b be a9 b6 0f be 08 b2 7d bd 40 b5 12 be
       -0.13620754 -0.14034523 -0.061937362 -0.14326954
0001b0 ff 14 c8 bd b0 63 70 be a6 7c 4f be dc 11 3c 3e
       -0.0976963 -0.23475528 -0.20262393 0.18366188
0001c0 20 60 51 3d 6f 92 9e be c2 be 84 be 65 41 7a be
       0.051117063 -0.30971095 -0.25926787 -0.24439009
0001d0 4d b4 c5 be 5e 74 37 3e 40 41 6e bc fa 66 9c be
       -0.3861412 0.17915484 -0.014541924 -0.30547315
0001e0 dd 90 6e 3e 7e e9 9c be a8 d6 03 3d cb db f7 3d
       0.23297448 -0.3064689 0.032187134 0.12102469
0001f0 1f 50 d5 3c 34 f7 21 be 8d 29 23 3e 80 ad ed 3d
       0.026039181 -0.15816957 0.15933819 0.11605358
000200 f1 39 53 be 88 da 17 3d 85 60 08 be 86 1d 55 be
       -0.20627572 0.037073642 -0.1331807 -0.20812044
000210 bc a0 e1 be 1d a8 cd be 7f e4 5a 3e a2 47 ee bd
       -0.44067943 -0.40167323 0.21376227 -0.116347566
000220 e7 92 43 3e 9e 68 4c bd fa 22 cf bc 25 ba b8 be
       0.19099008 -0.04990446 -0.025285233 -0.36079517
000230 00 42 06 bc 2d a8 60 bd e8 8e 29 3d cd 49 81 bd
       -0.008194447 -0.054847885 0.04139605 -0.063129045
000240 74 31 d8 be 8b 34 3e 3d d6 bb 2a bf 1f 6e e9 be
       -0.4222523 0.046436828 -0.66692865 -0.45591828
000250 38 67 78 3d 63 33 4a 3e 27 2a 73 be 00 72 a2 3a
       0.060645312 0.19746165 -0.23746549 0.0012393594
000260 d9 51 b7 be 98 46 b2 be 3d d1 9a be fc b8 26 be
       -0.35804632 -0.34819484 -0.3023776 -0.16281503
000270 df 83 40 be 22 b8 a4 be 50 00 44 bd 34 9c b6 3d
       -0.18800305 -0.32171732 -0.04785186 0.08916512
000280 d6 78 44 be d4 10 b4 3e 18 ca 37 3d c4 b9 79 be
       -0.1918672 0.3516909 0.044870466 -0.2438727
000290 10 76 5a 3e 1c f3 a6 3d 98 33 01 be a8 3d ae be
       0.213341 0.08151838 -0.12617338 -0.34031415
0002a0 94 46 23 be 50 cc 3f be b0 66 28 3d 14 f7 d5 3d
       -0.15944892 -0.18730283 0.041113555 0.10447517
0002b0 ca f0 b6 be e3 8f 4f be 90 d5 b0 3e 70 c9 b1 be
       -0.35730582 -0.20269732 0.34537935 -0.34723997
0002c0 e0 f0 bb 3c a0 5a 6d 3e 48 1d 73 be 10 ba 01 bd
       0.022942007 0.23179102 -0.23741639 -0.031671584
0002d0 2d 20 41 be f0 13 93 3c 72 a6 f4 3d 88 1c 08 3e
       -0.1885993 0.017953843 0.119458094 0.13292134
0002e0 b8 c9 5e bd 46 67 9b 3e ac 31 ea 3c f9 26 8b be
       -0.054391593 0.3035223 0.028588139 -0.2717817
0002f0 b7 80 21 3d 9d 8e e0 be 6f f3 78 3e 00 85 9b bd
       0.039429393 -0.43858805 0.24311613 -0.07593727
000300 30 c6 cc be 3c aa f8 3d 80 ee 46 3c 79 aa 3c be
       -0.39994955 0.12141845 0.012141824 -0.18424405
000310 06 5f 99 3e 72 96 7b be 3d 34 f8 3d 58 70 1a 3e
       0.2995531 -0.24569109 0.12119339 0.15081918
000320 d4 38 ad 3e cf d2 d0 be bf a3 4f 3e d7 a0 ce bd
       0.3383242 -0.40785834 0.20277308 -0.100892715
000330 d1 15 95 3e eb cb 63 bd 84 3d bd be 00 1e 69 bd
       0.29118207 -0.055614393 -0.36960995 -0.056913376
000340 37 48 a8 be 86 5e a5 3e bc 21 8d 3d e0 4c 40 bc
       -0.32867596 0.32298678 0.068912 -0.011737078
000350 50 81 76 3e 54 69 8c 3e 03 5d 86 be 01 32 bf be
       0.24072766 0.2742411 -0.26242837 -0.37342837
000360 20 70 b0 3d 40 22 90 3b 74 56 b6 be f1 50 ae be
       0.08615136 0.004398614 -0.35612833 -0.34046128
000370 6f 0c 9e bc 7c b3 e1 3d dd 34 29 be f7 49 9c 3e
       -0.019293038 0.11020562 -0.16524072 0.3052518
000380 24 a5 ac bd ca da 04 3e d9 ba 88 3e 01 db 8e 3e
       -0.084299356 0.12974086 0.26705053 0.27901462
000390 1b 3b bb be c4 06 1b 3e b0 1a b6 be e0 d9 c9 bd
       -0.3656853 0.151393 -0.35567236 -0.098560095
0003a0 77 5e bc be 7d 9f 23 3e 12 14 53 be 68 c8 8d bd
       -0.3679082 0.15978809 -0.20613125 -0.0692299
0003b0 85 08 16 3e 37 26 62 be c0 97 4d 3d 84 4d c2 bd
       0.14651687 -0.2208489 0.05019355 -0.09487441
0003c0 2f a3 7d 3d f2 2e a2 bd 54 a7 7c bf 01 5b 6b 3e
       0.061923202 -0.0791911 -0.9869282 0.22983934
0003d0 90 91 b3 bc 5a 58 f9 bd f8 60 02 3d fd ea 97 3e
       -0.021919996 -0.12175055 0.031830758 0.2967147
0003e0 1c d6 95 be e0 9c 57 bd 4e ee 10 3e fc 2c c9 3d
       -0.29264915 -0.052639842 0.14153406 0.09823033
0003f0 0f c5 46 3e 8f 29 05 3e 18 91 1b 3e 74 6a 0f be
       0.1941111 0.13004135 0.15192068 -0.14005452

sequential_2/dense_11/MatMul f4 [1, 15]
000000 f2 e6 ef bc c9 db ee bd ee 1e 01 3f b4 26 28 39
       -0.029284928 -0.116630144 0.5043782 0.00016036147
000010 61 bb 92 bc ad 7c 10 3f 7f 03 b8 bd fb cb f0 be
       -0.017911615 0.5644024 -0.08985042 -0.47030625
000020 ea 39 d2 3e 52 78 44 bc 83 e1 c5 bb 50 f9 96 3e
       0.4105981 -0.011991577 -0.006038846 0.29487085
000030 0b 79 f3 bc a5 b4 81 be 4f 36 9f 3e
       -0.029720804 -0.25333133 0.31096122

sequential_2/lstm_2/while/lstm_cell/BiasAdd/ReadVariableOp f4 [120]
000000 96 c0 cf b7 db 2a 3e 14 5f d8 5c ad 00 00 00 00
       -2.4766003e-05 9.601e-27 -1.2553596e-11 0.0
000010 00 00 00 00 00 00 00 00 00 00 00 00 95 bc 06 28
       0.0 0.0 0.0 7.4793865e-15
000020 00 00 00 00 08 49 04 bd 00 00 00 00 00 00 00 00
       0.0 -0.03229621 0.0 0.0
000030 00 00 00 00 30 c2 dc 3c 00 00 00 00 e9 ca 61 ae
       0.0 0.026948065 0.0 -5.1339297e-11
000040 00 00 00 00 14 2e 26 34 00 00 00 00 c7 fd ea bc
       0.0 1.5476718e-07 0.0 -0.028685464
000050 d6 11 03 bd 00 00 00 00 00 00 00 00 00 00 00 00
       -0.03199943 0.0 0.0 0.0
000060 00 00 00 00 00 00 00 00 3f 65 32 b2 9e 61 a2 bc
       0.0 0.0 -1.0383984e-08 -0.019821938
000070 76 f8 82 a1 00 00 00 00 00 00 80 3f 00 00 80 3f
       -8.87491e-19 0.0 1.0 1.0
000080 00 00 80 3f 00 00 80 3f 00 00 80 3f 00 00 80 3f
       1.0 1.0 1.0 1.0
000090 00 00 80 3f 00 00 80 3f 00 00 80 3f 00 00 80 3f
       1.0 1.0 1.0 1.0
0000a0 00 00 80 3f 00 00 80 3f 00 00 80 3f 00 00 80 3f
       1.0 1.0 1.0 1.0
0000b0 00 00 80 3f 00 00 80 3f 00 00 80 3f 00 00 80 3f
       1.0 1.0 1.0 1.0
0000c0 00 00 80 3f 00 00 80 3f 00 00 80 3f 00 00 80 3f
       1.0 1.0 1.0 1.0
0000d0 00 00 80 3f 00 00 80 3f 00 00 80 3f 00 00 80 3f
       1.0 1.0 1.0 1.0
0000e0 00 00 80 3f 00 00 80 3f 00 00 80 3f 00 00 80 3f
       1.0 1.0 1.0 1.0
0000f0 00 dc ee 36 e3 77 5b 11 67 2c ef aa 8c 63 e3 bd
       7.118564e-06 1.7312997e-28 -4.248574e-13 -0.111029714
000100 00 00 00 00 00 00 00 00 00 00 00 00 60 0a 34 25
       0.0 0.0 0.0 1.5616026e-16
000110 00 00 00 00 2b a7 e1 bb 00 00 00 00 d8 b1 af 3d
       0.0 -0.006886383 0.0 0.08578843
000120 00 00 00 00 6f c2 69 bd 00 00 00 00 86 56 3f 2d
       0.0 -0.057070192 0.0 1.0876305e-11
000130 00 00 00 00 fe 06 12 31 00 00 00 00 68 99 f9 bb
       0.0 2.124977e-09 0.0 -0.0076171644
000140 6c a2 57 bc 00 00 00 00 00 00 00 00 00 00 00 00
       -0.013161283 0.0 0.0 0.0
000150 00 00 00 00 00 00 00 00 a3 8c a7 af e1 37 93 bc
       0.0 0.0 -3.0477051e-10 -0.017970981
000160 cb 88 7e a4 00 00 00 00 35 3a ce b7 ee c1 ea 15
       -5.519334e-17 0.0 -2.4584218e-05 9.4817814e-26
000170 00 00 00 00 c5 83 f9 3b 00 00 00 00 00 00 00 00
       0.0 0.007614585 0.0 0.0
000180 00 00 00 00 9a bc 06 28 00 00 00 00 00 00 00 00
       0.0 7.479391e-15 0.0 0.0
000190 00 00 00 00 00 00 00 00 00 00 00 00 9a 18 f2 3d
       0.0 0.0 0.0 0.118210986
0001a0 00 00 00 00 36 cb 61 ae 00 00 00 00 00 00 00 00
       0.0 -5.1339565e-11 0.0 0.0
0001b0 00 00 00 00 03 08 b4 31 6c 95 ce 3a 00 00 00 00
       0.0 5.2396003e-09 0.0015761084 0.0
0001c0 00 00 00 00 00 00 00 00 00 00 00 00 00 00 00 00
       0.0 0.0 0.0 0.0
0001d0 99 74 32 b2 00 00 00 00 df 7b a0 a6 00 00 00 00
       -1.0387475e-08 0.0 -1.1135806e-15 0.0

sequential_2/lstm_2/while/lstm_cell/MatMul_11 f4 [120, 30]
000000 50 89 ee 3d f1 fd 09 3d 02 8d 91 3d 8e 5b 0d be
       0.11647284 0.033689443 0.07106973 -0.13804457
000010 fe 11 7c 3d fd 0d 8e be 51 28 6f bd c8 9f a7 bd
       0.061540596 -0.27745047 -0.058388058 -0.08184773
000020 19 cb 74 bd e1 66 b4 3d 8b 31 b4 3c 30 05 a5 3c
       -0.059764 0.08808685 0.02199628 0.020144075
000030 43 b5 18 3d 1c 25 eb 3d 15 eb 39 bd f2 47 9d 3c
       0.03728224 0.114816874 -0.045390207 0.019199345
000040 a9 90 24 bd 1a ed 14 be c7 45 00 3d cc 60 d0 bd
       -0.04017702 -0.14543572 0.031316545 -0.101747125
000050 18 dd d9 3d 54 ac ce bd 3c d4 0c be 03 5b 82 3d
       0.106378734 -0.10091463 -0.13752836 0.06365015
000060 b7 99 cf bd 61 e0 c6 3c 8e 35 7e bd 77 7b 38 3b
       -0.10136741 0.024276914 -0.062062792 0.0028149763
000070 4f 0c 1c 3c 4f 6e 46 3e b8 f6 a4 bc 3c d2 f1 3d
       0.009524419 0.19378017 -0.020137176 0.11807677
000080 06 5c dd 3d 7b 68 fa bc 7a eb e8 bd 3c 91 8e bd
       0.10808568 -0.030567398 -0.113730386 -0.06961295
000090 ee ce 94 bd fc 19 07 3e 78 a1 31 3c 95 bf 77 bd
       -0.07266031 0.13193506 0.01084172 -0.06048544
0000a0 e5 03 94 3c 1c d1 11 be f5 78 0d 3e e2 91 8a bd
       0.018068263 -0.14239925 0.13815673 -0.06766106
0000b0 d9 6e cb 3d 23 45 39 be af d5 93 3d a1 21 be bd
       0.09933252 -0.1809278 0.07218491 -0.09283758
0000c0 e0 74 7d 3d d3 9d 44 3e 20 4e b6 bc 46 3c 62 3c
       0.06187904 0.1920083 -0.02225405 0.013808316
0000d0 a1 eb 86 3d ce f7 3c 3d 04 e7 a7 3c cb 83 b8 bc
       0.065879114 0.046134762 0.020495899 -0.022523781
0000e0 ba 81 a6 3d 72 be 0f 3d 73 c0 c1 3c 79 2b 0e 3d
       0.08130212 0.035093732 0.023651337 0.034709428
0000f0 65 5e d3 bd 74 61 69 bd 83 fc 57 3e 6b 12 4e bd
       -0.10320739 -0.056977704 0.2109242 -0.050310533
000100 dd 46 9e bd 04 85 9b bc e0 1e 58 bd d5 52 10 be
       -0.0772836 -0.018984325 -0.05276382 -0.14094098
000110 ee 1f 3b bd 0e e3 fd 3d 35 f5 4e be 98 ff a6 bd
       -0.045684747 0.12396823 -0.20210727 -0.081542194
000120 97 e0 ee bb a8 69 2d 3d 8a 9a 3c bc 10 46 35 3e
       -0.007289957 0.04233709 -0.011511454 0.17702508
000130 e0 22 e4 bd 3a 9d 0e 3d 64 4e ae bd da 42 40 3d
       -0.111394644 0.03481791 -0.085110456 0.046938755
000140 16 70 08 3e 40 46 b4 b9 bc 05 09 bd 46 7b aa bd
       0.13324007 -0.00034384616 -0.033452734 -0.08324294
000150 56 08 a6 bc f6 a6 20 3d 1f 5e f3 3c 16 6e 5e 3d
       -0.020267647 0.039221726 0.029707966 0.054304205
000160 1e 83 44 3c 47 6d dc bc 11 4a 32 be 50 ea 46 3d
       0.011994151 -0.026907576 -0.17411067 0.0485633
000170 32 87 5f bd bf 6f a3 bc 78 8b 92 3d bd 7d 10 be
       -0.05457229 -0.019950746 0.07155508 -0.14110465
000180 33 2a 4a bd 74 b4 e8 bd 50 12 a4 3d ab ea dd bd
       -0.04935665 -0.11362544 0.08011305 -0.10835775
000190 e4 03 f4 bd 7f 63 2c 3e 24 08 8b 3c 29 b9 fe bc
       -0.119148046 0.1683483 0.016971655 -0.03109415
0001a0 0c 7c fe bd 79 eb 00 be b5 d8 04 be 0e 9a 82 bd
       -0.12426004 -0.12589826 -0.12973292 -0.0637704
0001b0 b3 4f 24 3e 97 ce 94 3c d2 20 e6 3d c0 30 d5 bc
       0.16046028 0.018164916 0.11236729 -0.026024222
0001c0 be f8 1a 3c 1d 1b 1f 3c 6c 32 9e bd ef d4 06 3e
       0.009458719 0.009711054 -0.07724461 0.13167165
0001d0 0a da 78 3e 80 84 09 bc bc 6d 88 bb 9c ab af 3d
       0.24301925 -0.008393407 -0.004163472 0.08577654
0001e0 ff a5 23 bd 77 f4 9f 3d c5 e5 dd 3c 29 59 79 bd
       -0.039953228 0.078103 0.027087102 -0.060876045
0001f0 86 cc f2 bd 00 77 16 bc 77 01 39 bc d6 19 0a bc
       -0.11855416 -0.009183645 -0.011291853 -0.008429011
000200 2a af 6e 3d 58 0d 81 bd cd aa 54 3e ba 0b da 3d
       0.05827252 -0.06301373 0.2076828 0.10646768
000210 92 2b 4f 3b e4 04 0f be 07 70 c1 bd 5a d6 82 bc
       0.0031611663 -0.1396671 -0.09445196 -0.015971351
000220 e0 da 5c bd 8c a8 4c 3d 07 c1 ca 3d 06 a9 ee 3c
       -0.053919673 0.049965426 0.09900098 0.029133331
000230 e2 4d 47 bd fe 08 34 bd 88 aa 05 3d 34 a2 81 bc
       -0.04865826 -0.043953888 0.032633334 -0.015824415
000240 ce 7f 33 bc 19 ca 7f bd ac 9b 1f be 73 22 1b be
       -0.010955764 -0.062448595 -0.15586728 -0.1514986
000250 e5 26 3f 3e 16 45 51 bc 7d 94 0d be 0c db ca bd
       0.18667181 -0.012772819 -0.13826175 -0.09905061
000260 87 93 1e 3d 63 b8 1e 3e 78 b4 31 be fa a7 0a be
       0.03871491 0.15500025 -0.17354 -0.1354064
000270 f2 bb 2e 3d c8 5c 2e bd 15 36 b9 bd 22 d9 78 3d
       0.042659707 -0.04256895 -0.090435185 0.06075395
000280 74 a5 2b 3d d3 27 58 3d 4b 63 8d 3d 78 d0 fc 3c
       0.041905835 0.052772354 0.06903704 0.030861124
000290 e2 32 ff bd 6d c6 bc 3d a2 83 60 3e 56 8d e0 bd
       -0.12460877 0.09217534 0.21925214 -0.10964458
0002a0 2e 4b 7e bd 1f cf 0e be 22 97 46 bd 10 d8 d6 bb
       -0.062083416 -0.13946198 -0.048483975 -0.0065565184
0002b0 6e de 29 3d fc 48 b4 bd 62 23 5d 3d 76 92 0c 3d
       0.04147189 -0.08802983 0.05398882 0.034319364
0002c0 79 00 a2 bd 1a f9 3a 3d 07 f4 ce 3c 71 a2 34 3d
       -0.079102464 0.045647718 0.025262846 0.04410023
0002d0 e4 f7 3b 3d 83 e7 84 bc fa e0 b3 3d bd 27 aa 3d
       0.045890704 -0.016223675 0.08783145 0.08308361
0002e0 01 d8 33 be e0 48 5c 3d 31 42 95 3c 20 ac 4e bc
       -0.17562868 0.053780437 0.01822004 -0.01261428
0002f0 dd cf 0d 3e 60 c5 70 bd ee 36 ee 3c 18 65 25 3c
       0.13848825 -0.05878198 0.029078927 0.010094903
000300 07 56 07 bd 64 7b c9 bc 29 2d 34 3d a4 aa 89 3d
       -0.033041026 -0.02459497 0.04398838 0.06722
000310 ee ac 0f 3d 5e 8f 07 3d f3 7e 04 be bc 17 d7 bd
       0.035077028 0.03309571 -0.12939052 -0.10502574
000320 50 ae 50 3d a5 61 38 be 1d 99 87 bd cd 54 ce 3d
       0.050947487 -0.18005998 -0.06621001 0.10074768
000330 eb ae c7 bd 5c eb 8c 3c 81 c2 1a be 6c ca 2a 3e
       -0.0975016 0.017202072 -0.1511326 0.1667878
000340 89 ec 8e 3d a8 30 b0 bd 13 81 6c bd e2 12 b0 3d
       0.06978709 -0.086030304 -0.057740282 0.085973516
000350 72 19 3d 3c 54 9d eb 3c 08 77 1e 3c a2 d6 a7 bd
       0.011541711 0.028761543 0.009671934 -0.08195235
000360 46 4f 3b 3d 9e 6e 89 3b 89 73 c8 bd b4 0c c2 3a
       0.045729898 0.004194095 -0.097876616 0.0014804811
000370 75 3c b1 3c 1b 2d 50 bd 1c 0b 45 bc 61 c5 f9 bc
       0.021635273 -0.050824266 -0.012026574 -0.030489625
000380 a9 a9 00 3e 43 18 71 3d 61 65 56 bd f8 b0 0f bb
       0.1256472 0.05886103 -0.052342776 -0.002192555
000390 5e 24 f3 3d 9e 26 b3 3d b4 d6 11 be 50 c2 c4 bc
       0.11872171 0.087476 -0.14242059 -0.024018437
0003a0 15 4f 11 be 78 34 1b be 78 30 88 3c a0 56 e4 3d
       -0.14190324 -0.15156734 0.016624674 0.11149335
0003b0 22 e1 17 3d 1f 8b f2 bc 98 9c fe bc a4 90 1f bd
       0.037079938 -0.029607354 -0.03108053 -0.0389563
0003c0 c9 20 be 3b 8e 3f e1 3d ea 3a 86 bd 59 f9 be 3c
       0.005802248 0.1099845 -0.06554206 0.023312258
0003d0 a4 35 82 3d c7 f6 8a 3c 82 6d b1 bd de 8f 04 be
       0.063578874 0.016963376 -0.08663465 -0.12945506
0003e0 c9 d9 5a bc f0 5c 6f bc bb ea 0c be 51 bd f9 3d
       -0.013357588 -0.01460956 -0.13761418 0.12194312
0003f0 73 98 32 be fb b6 2b be 19 6d c8 3c 54 9e 8c 3c
       -0.17440967 -0.1676902 0.024466084 0.01716534

sequential_2/lstm_2/while/lstm_cell/MatMul f4 [120, 5]
000000 49 93 14 be 76 5e be 3c 9a 30 fd bd ea eb d4 bd
       -0.1450931 0.023238402 -0.12362786 -0.103965595
000010 6f 41 22 3e a8 7e b6 bc 72 24 8f bd ea 34 54 be
       0.15845273 -0.022277191 -0.06989373 -0.2072331
000020 36 a2 c1 3d 8d 83 42 be 4d f0 fb bd d3 9b 3c 3e
       0.094547674 -0.18995495 -0.12301693 0.18418817
000030 9b 47 40 be 40 7c 4b bb c0 67 5a bc 70 f4 a4 bc
       -0.18777315 -0.00310494 -0.0133304 -0.020136088
000040 7e 9f 80 3d 78 05 db 3c f0 3b 03 bd e5 4a 39 3e
       0.06280421 0.026736006 -0.032039583 0.18094976
000050 a2 fd ab bd ae 5c 3b be 53 32 0c 3e 3e d3 9c bd
       -0.08397986 -0.18297073 0.13691072 -0.07657479
000060 a2 be d6 3d ba b9 de 3d 90 11 15 3c 5a 9e 96 bd
       0.10485579 0.10875268 0.0090984255 -0.07354422
000070 ca e9 e8 3d 2a 24 83 3d 45 37 2e 3e ac 71 40 3d
       0.11372717 0.06403382 0.17013271 0.046983406
000080 75 b1 03 3e 00 a1 3e bc 29 b5 0b 3e b4 eb 7e 3d
       0.12860663 -0.011635065 0.13643326 0.062236503
000090 2b 44 40 be c0 a6 c0 bb 81 0b 2c 3e a6 78 bf bd
       -0.18776004 -0.005879253 0.16801263 -0.09349184
0000a0 b3 24 09 3e c5 45 0e be 6a 1b c1 3d 2a df ee 3d
       0.13392906 -0.13893802 0.09429057 0.11663659
0000b0 03 b7 07 3e bc 59 4d be a7 9d 16 be 61 1d 8b 3d
       0.13253407 -0.20053762 -0.14708577 0.06792713
0000c0 d0 bb 5a 3c 98 83 7f be 1a e9 31 be 51 08 19 3e
       0.013350442 -0.24952543 -0.17374077 0.14944579
0000d0 97 51 dc bd 98 e2 3d be 8f 16 d4 bd 28 8d ac 3c
       -0.107577495 -0.1854347 -0.10355865 0.021063402
0000e0 fa 23 a2 3d 71 e5 2b 3e a9 ad 36 be 95 81 0a 3e
       0.07917018 0.16786744 -0.17839684 0.13525994
0000f0 c8 d2 ac bd 2c 40 8c bd 5c ee 4c be e0 6b 9f bb
       -0.08438641 -0.06848177 -0.20012802 -0.0048651546
000100 80 37 29 be a4 3f 6a bb 6b 7d 4a be a0 17 6e bb
       -0.16525078 -0.00357435 -0.19774406 -0.003633
000110 9a 5e 1a 3d a9 d1 5b 3e c0 4f 5d bc dc 8c 7d 3d
       0.037687875 0.21466698 -0.013507783 0.061901912
000120 e4 06 77 3d b6 eb da bd 6e a6 d7 3d 22 52 cb 3d
       0.060309306 -0.106894895 0.10529791 0.09927775
000130 3c 76 91 bd a4 77 42 3d 23 18 3c be ea cc 32 be
       -0.071026295 0.04747738 -0.18368582 -0.17460981
000140 57 c8 30 3e 80 70 b4 bc b3 d1 54 3e df 32 40 3e
       0.17263924 -0.0220263 0.20783119 0.18769406
000150 e6 df f0 3d 8c eb 8a bd 6c 64 99 bd 7b 2c ec bd
       0.11761455 -0.06783208 -0.07489857 -0.115319215
000160 6e d3 5a bc 17 75 0d bc 4a ab 42 be 26 47 f3 bd
       -0.013356073 -0.008633873 -0.19010654 -0.11878805
000170 10 36 50 bd 57 30 27 3e 41 5a 27 3e b2 4b 63 bd
       -0.050832808 0.16327034 0.16343023 -0.05549211
000180 30 e4 f4 bd 7d 19 50 be cb 16 05 3e 30 1f 2e 3e
       -0.11957586 -0.20322223 0.12996976 0.17004085
000190 4b 25 ab bd ea e6 92 bd 0c 7c cf 3b b9 38 e3 bd
       -0.083567224 -0.071729496 0.006331926 -0.11094803
0001a0 2c c4 24 be d2 2d 1b be 70 ff c2 3c 5c 40 ea bd
       -0.16090459 -0.15154198 0.023803443 -0.11438057
0001b0 fc 7a 68 bd b3 66 4c 3e 0c ca 3b be 5e 89 5f be
       -0.056757912 0.19961052 -0.18338794 -0.21829745
0001c0 ff 82 00 3e d8 c4 c4 3c b6 53 d4 3d 00 d9 1a bb
       0.12549971 0.024019644 0.10367529 -0.0023627877
0001d0 76 42 a8 3d 17 a1 45 be 18 95 1f bd 2e ce 8a 3d
       0.082158014 -0.19299732 -0.038960546 0.06777607
0001e0 54 48 22 be ff 34 02 3e 38 7c 46 be 40 15 ab bb
       -0.15847903 0.12715529 -0.19383323 -0.005221039
0001f0 24 94 28 be 5a 5d a2 bd b4 11 5a 3d 60 ae 87 bc
       -0.16462761 -0.07927962 0.05323954 -0.01656264
000200 22 ee 23 be d2 aa 49 be 04 8d 7a 3d c1 4e 09 bd
       -0.16008809 -0.19694069 0.06116964 -0.03352237
000210 4b b5 04 be 18 02 7a bd bf 4e 2e 3e a4 80 1c 3d
       -0.12959783 -0.061037153 0.17022227 0.03820862
000220 87 03 53 bd dd 5a 1e be c7 6c 59 be 49 ab ad 3d
       -0.051517036 -0.15464349 -0.21232902 0.08479936
000230 f2 d9 9b 3d b9 cf 4c 3e d0 fa 16 bd ce a6 a4 3d
       0.07609929 0.20001115 -0.036860287 0.08039628
000240 2a 48 fe 3d db 89 3b 3e 44 fd bc bd 09 c9 59 3e
       0.12416108 0.18314306 -0.09227994 0.21268095
000250 dd b2 07 3e c0 ec a6 bc 80 f3 45 bc 20 1b ad bc
       0.13251825 -0.020376563 -0.012081981 -0.021131098
000260 9c b3 3c be dc 73 8e bd 00 88 c3 38 18 3e 13 bd
       -0.1842789 -0.06955692 9.3236566e-05 -0.03594789
000270 e2 41 80 3d 72 5e c6 3d b9 50 54 3e ae da b8 3d
       0.06262566 0.09685983 0.20733918 0.09026085
000280 a4 ed 83 bd 08 e5 c7 bd ff 71 4e 3e 61 d3 46 3e
       -0.06441811 -0.09760481 0.20160674 0.19416572
000290 a4 37 16 be 78 e7 29 be 40 ad 7d bc f9 c2 12 be
       -0.14669663 -0.16592205 -0.015483201 -0.14332189
0002a0 26 7c eb bd 19 5e e4 bd 7b 46 59 3e ad ca 34 3e
       -0.11498289 -0.1115076 0.21218292 0.1765544
0002b0 57 c4 46 be 59 4b 57 be 86 d7 12 be 40 8f 47 3b
       -0.19410835 -0.21024837 -0.14340028 0.0030450374
0002c0 aa 24 32 be 60 ac 53 bc a0 ca 31 bc c0 2d e6 3b
       -0.17396799 -0.012919515 -0.010851532 0.007024497
0002d0 81 60 17 3e 12 9c 9d 3d b1 91 3f 3e 70 45 20 3c
       0.14782907 0.07695784 0.1870792 0.00978218
0002e0 a8 d0 7d bd 4e c0 8a 3d d1 00 07 3e 91 73 58 3e
       -0.06196657 0.067749605 0.13183905 0.21137835
0002f0 3b 5d 00 3e 88 55 31 be 4b 14 55 3e b4 dd 00 3d
       0.12535565 -0.17317784 0.20808522 0.031461433
000300 53 84 0c 3e 35 a5 2e 3e d4 3e fe bd 20 8e f9 bc
       0.13722353 0.17055209 -0.12414327 -0.030463278
000310 9a 20 01 be ff 6f d8 bd 8e b2 d4 3d 91 3c 51 be
       -0.12610093 -0.105682366 0.10385619 -0.2043326
000320 cb 68 53 be 8e 3e 87 3d 88 b0 5a bd 32 ad 87 3d
       -0.20645444 0.06603728 -0.05339101 0.06624831
000330 b8 b8 e2 3c 7c 74 57 3d a5 ee 33 be 7b 5d 35 3e
       0.027675971 0.052601323 -0.17571504 0.17711441
000340 c1 9b ff bd 10 e5 dc 3c 9c 72 0d 3d 32 24 85 3d
       -0.124808796 0.026964694 0.03453313 0.06501044
000350 d7 17 f6 bd f7 3f 18 3e e7 28 3b 3e 69 de 34 be
       -0.12016266 0.1486815 0.18277322 -0.17662968
000360 d5 ae e9 bd 24 51 23 bd 59 08 43 3e 71 76 23 3e
       -0.114103 -0.039872304 0.19046153 0.1596315
000370 20 35 b2 bd c5 8b 34 3e 33 d6 01 3e 80 5d 51 3c
       -0.08701539 0.17631443 0.12679367 0.01277864
000380 93 6e 3a 3e 00 93 72 ba 04 11 38 bd bd e3 35 3e
       0.18206243 -0.0009253472 -0.044938102 0.17762657
000390 98 d2 28 be 16 f3 f9 3d b3 25 4c 3e 80 62 ac bd
       -0.16486585 0.12204568 0.19936256 -0.08417225
0003a0 64 19 bd bd 5c af b4 bd 30 b6 73 bc 8e 5c 9c 3d
       -0.092333585 -0.0882251 -0.01487498 0.07634841
0003b0 84 95 59 bd 01 65 fe bd b7 63 5e 3e 4e d1 52 be
       -0.053121105 -0.12421609 0.21717726 -0.20587656
0003c0 ad 38 09 3e ae 28 a0 3d fa 01 83 3d e1 1a 5a 3e
       0.13400526 0.07820259 0.063968614 0.21299316
0003d0 d2 77 b4 3d 56 ee 2d be 0d d5 53 3e 54 4a 5b bd
       0.088119164 -0.16985449 0.20686741 -0.05353768
0003e0 f3 0b 3a 3e b4 da 19 be 95 81 39 3e fc 5e 54 3d
       0.18168621 -0.15024835 0.18115838 0.051848397
0003f0 d2 fe e2 3d 60 08 67 3c 6c 71 3d 3d 83 79 32 3e
       0.11083759 0.014101118 0.046250746 0.17429166
